model_weights.npz (npz, 815210 bytes, 4 tensors)

hidden_weights f8 [784, 128]
000000 36 35 c0 32 2f fd d5 bf e2 4d 4e f6 bc 17 d4 3f
       -0.3435781474698446 0.3139488606768436
000010 98 de 22 49 b8 91 d6 bf 95 89 e9 5b 64 bd de bf
       -0.35264403478820716 -0.48030957198911867
000020 51 f8 96 d5 2e 10 ac 3f 4e db eb 68 4f 2e 9b 3f
       0.054810966084446584 0.026543846873177394
000030 6d df ca f0 8e 6e be 3f 7a 4c d3 f0 78 1c d3 3f
       0.11887448672029928 0.2986128188906104
000040 ff ee bc c9 be 4f d9 bf a8 ac 07 5b 1c b3 d4 bf
       -0.39549226475695315 -0.3234320534672386
000050 04 e3 b8 a1 cb b2 c7 bf 61 a9 37 ef 13 e9 d5 bf
       -0.18514390369980316 -0.3423509441478441
000060 f3 83 31 b0 a4 5f ad bf 80 72 40 cf 3b e1 7f bf
       -0.05737032557295398 -0.007783158904228871
000070 4d af 83 33 c7 0a b6 3f c6 d9 34 27 1c 5e a7 3f
       0.08610196120906473 0.04563987711519561
000080 16 f3 20 15 3c f0 87 bf 30 c3 df aa 3a 1d c3 bf
       -0.011688680071637186 -0.14932950347385932
000090 d3 50 28 5b 10 11 c3 3f da ae 53 3b 54 1e d5 bf
       0.14895824862526882 -0.32997613710061346
0000a0 4d 40 2f 75 0b e5 9e 3f 5c 90 af 6c 85 34 cd 3f
       0.030170611407641258 0.22816531950877816
0000b0 bb 87 91 7f cf ae d8 bf 60 d4 64 eb ce c5 90 3f
       -0.3856695886407768 0.016379578702260367
0000c0 b0 ef 4a 52 e6 d2 de 3f 7d cb c5 48 37 1a d5 bf
       0.4816222957267611 -0.3297250948591495
0000d0 1c cd db 85 a8 3b ba 3f be 60 28 60 a4 48 a1 3f
       0.1024728133013934 0.03375734018135422
0000e0 c5 9e 65 70 8c 3f b2 bf 30 a4 f3 31 6e 64 de bf
       -0.07128217453066117 -0.4748797881898694
0000f0 dc 18 c6 7a cc a1 cd bf c8 af 0d f4 03 23 df bf
       -0.23150020594420695 -0.48651217301698724
000100 23 81 88 ea 4f d8 d2 3f 43 94 a5 1d 9f 41 c1 3f
       0.29445264724383174 0.13481511066052762
000110 88 ad d3 c0 4a 51 c9 bf 03 a6 2a 74 28 9d a5 3f
       -0.1977933351075587 0.042214645557873375
000120 bf b3 11 af e1 d7 c4 3f 15 51 f0 94 a9 85 dc bf
       0.1628381829099492 -0.44565810723112637
000130 95 f0 82 43 a8 14 db bf 2c 11 ba 27 6e dd cb bf
       -0.4231358203212577 -0.21769501628671983
000140 26 96 bc 46 2f 4e d3 bf 6f 92 36 2d fe 34 d0 bf
       -0.30164701373937175 -0.25323442855213946
000150 7e db 4f f2 9b 6d c7 bf bb 89 3f 81 e5 ac d4 3f
       -0.18303250629079665 0.3230527651013763
000160 e4 6f ba 91 a3 4f d2 3f c8 49 c6 a5 ca 71 b8 bf
       0.286110775292171 -0.0954863218997054
000170 d6 72 f3 bb ed 99 be bf fa 3b a4 50 0b d6 c1 bf
       -0.11953626478811982 -0.13934461057257846
000180 76 41 19 34 11 1f d5 3f e0 ac b1 37 27 d4 b7 bf
       0.33002119148024833 -0.09308095082967638
000190 08 9f 32 6e b6 e0 c5 3f 44 8b 57 f6 ee d1 b2 bf
       0.1709201849055193 -0.07351583017547819
0001a0 f2 c7 30 ee fa e5 db bf 40 11 33 6e d9 bb d3 3f
       -0.4359118772582625 0.3083404136816803
0001b0 5d 85 d2 91 70 76 d1 bf 60 da 76 d6 ba d0 dc 3f
       -0.27285398712600345 0.45023985809112865
0001c0 75 13 c6 ee 15 35 dd 3f ee c2 b6 f5 c8 4b a9 bf
       0.4563650924467802 -0.04940631865918542
0001d0 7e 6b 52 5f 91 99 dd bf 06 30 3c 01 58 6f c9 bf
       -0.46249803837570613 -0.19871044216449735
0001e0 f9 ea 86 9d 9e e3 a6 bf fa 11 6a 90 3e ff d0 bf
       -0.04470534966409007 -0.26557888129198626
0001f0 7b 9d ef e4 60 ef d5 3f 44 cd 5b 8f b0 8b dd 3f
       0.34273550374060563 0.4616509819017731
000200 62 79 18 56 1d b9 d7 bf 02 ec 0c 35 a3 e6 dd 3f
       -0.3706734982278218 0.4672019975729996
000210 93 f9 9b 74 d9 84 d7 bf 47 2e 96 8d 96 08 7b 3f
       -0.3674834860575171 0.006599987123432855
000220 c2 b3 53 22 04 fb de bf a0 77 00 80 89 77 ca 3f
       -0.4840708098625407 0.20677298307503822
000230 0f dd 5e f5 2d 97 d8 bf a6 90 f9 cd 1a 6d db bf
       -0.3842272659489518 -0.42853422274334674
000240 f3 54 9f ef 4d 31 d9 bf 00 d7 8f 50 4f c2 7a bf
       -0.393634304052582 -0.006532964537645958
000250 be ce 2d 55 b3 5b d5 bf fe 04 8c 6d 0b 61 d3 3f
       -0.33372195547347505 0.3027981347841687
000260 12 6b 85 a6 d0 82 dc bf 54 88 f5 f2 c1 2e d0 bf
       -0.44548431646187325 -0.2528538582465718
000270 26 8d 32 41 d5 3c cb bf c2 a1 41 02 37 90 d2 bf
       -0.21279397662611038 -0.2900521776232631
000280 a5 06 7e f6 b4 ba d9 bf e4 5d b3 57 33 bc de 3f
       -0.4020206839705714 0.48023685040013064
000290 c0 8d 1b 55 97 fb dc 3f 00 88 e2 12 3a 2a 76 bf
       0.452855904686853 -0.005411364412937658
0002a0 50 ce 8e e6 c2 95 bd bf 36 29 d5 9b 78 bb c3 bf
       -0.11556642655232818 -0.1541586647893582
0002b0 28 bb b5 0f 05 95 cd 3f 40 a6 90 13 1c 7c c4 3f
       0.23111022250255897 0.16003752665828763
0002c0 88 b1 89 44 8b 48 cd 3f 00 83 f4 ce 5d 63 b8 bf
       0.22877636763167808 -0.09526621153464632
0002d0 96 73 18 30 bb 42 df 3f e4 ba 73 33 53 1c d2 bf
       0.48844794937922964 -0.2829788210355402
0002e0 19 6e a3 ee 2a 0a b7 bf 59 c8 83 5c 74 d5 b4 3f
       -0.08999889684803754 0.08138205774938125
0002f0 4c ee 80 e8 51 6b c7 bf 08 1e ac 87 c1 9f c9 bf
       -0.1829626450797711 -0.20018786549211165
000300 2a ef 25 65 fd 3f b7 3f 5f 22 c2 02 40 ac cc bf
       0.09082015723646167 -0.224006654116482
000310 61 46 1f 70 4f 7f c9 3f ca 99 72 fc e7 50 d3 3f
       0.19919770216670243 0.3018131223019763
000320 7c db ed 22 1a 1c cd 3f c6 d2 3d f6 64 1f d5 bf
       0.2274201078941721 -0.3300411610319255
000330 a6 c8 0c 8e 3a ca cd 3f 58 45 fd 9c 49 1c c8 bf
       0.2327340310672003 -0.18836326756949506
000340 6f 53 38 66 42 61 c7 3f 51 5f 20 c8 29 92 b2 3f
       0.1826556204911429 0.07254277358913198
000350 3c 44 6b ff b3 8f c0 bf 72 e5 07 9b 1a 79 c7 bf
       -0.12938547107344955 -0.18338329858651609
000360 f4 46 ff c8 cb 5d cb 3f a8 55 21 7d 6f a6 d9 bf
       0.21379992784800772 -0.40078341693637265
000370 f2 d2 4f 3f 10 1e de 3f 36 69 18 ec b3 3d d3 3f
       0.47058492834848586 0.3006410413378434
000380 e6 d0 81 80 5c 16 d9 3f 76 21 85 d3 ef 74 78 3f
       0.3919898276283348 0.005970894643106175
000390 7f 46 80 77 09 99 c4 bf 11 38 19 43 35 e3 d0 3f
       -0.1609203179837557 0.2638676791438011
0003a0 a3 3a 20 ae fd 4e df bf 5a 06 f6 f3 ee 10 d1 3f
       -0.4891962242553893 0.26665853332824485
0003b0 1a 4f d4 e3 0d 0f cd bf 72 09 2f aa 01 62 b3 3f
       -0.22702191948393918 0.075714210556759
0003c0 b7 a9 97 61 44 37 d2 bf 6b 97 a3 17 91 0d cb bf
       -0.28462323694716524 -0.21135152487039063
0003d0 dd 2e 3f 70 9a 33 d6 bf f9 0f f4 05 ef 17 d5 bf
       -0.34689961396791863 -0.32958579617866196
0003e0 07 34 6b c8 af f3 d8 bf 01 a3 02 0c af aa ce 3f
       -0.3898734528746108 0.23958385549965303
0003f0 8e 1d 79 1b 63 24 cf 3f 78 21 c2 4a 38 c7 c8 bf
       0.243297947325328 -0.19357970857914686
000400 fe 5f be 8f 11 5a d8 3f c7 f4 3c ea f3 ca d4 bf
       0.380497351050053 -0.32488725542846136
000410 1a b6 9a 91 65 e8 d8 3f 9e 75 a7 5a 51 62 d2 3f
       0.38918437213109913 0.28725084164565284
000420 4b 28 07 dd dc e6 de bf 52 79 5c fe 14 e6 cf bf
       -0.4828407438732298 -0.24920904560071705
000430 43 35 58 cb 96 0b b3 bf 88 5d 77 0e 50 ec cc 3f
       -0.07439558472124923 0.2259616919170464
000440 04 e5 86 3a 90 06 b9 3f 5c fd 94 ef ba ef 5d 3f
       0.0977563994300859 0.0018271756692483576
000450 68 11 08 b5 5e e3 c7 bf 06 02 83 0e 79 af de 3f
       -0.18662628020696137 0.4794600145069413
000460 8f 51 66 ad fe 04 d9 bf 37 74 ca d7 81 1d c4 bf
       -0.39092986043513006 -0.15715048824941544
000470 4d a6 55 3c 30 32 de bf 70 3d b2 f3 a3 eb cc 3f
       -0.4718132580952428 0.22594117545348125
000480 e6 53 f4 c0 d3 b7 d3 3f ec 80 51 7b 46 1a d9 bf
       0.30809491961673385 -0.39222871821222216
000490 e2 eb 64 c5 8b 01 d9 3f 52 f3 cf d8 5d 43 d8 3f
       0.3907193591764423 0.37911173031880196
0004a0 94 66 95 7a 6a ba d5 bf c8 53 25 af 0a 0a e0 3f
       -0.33950292559675543 0.5012257977310748
0004b0 99 9b 7d 74 c1 4c dc 3f d0 cd 73 de 9d ca a3 3f
       0.4421847951511438 0.038655217556790356
0004c0 67 50 5d 0c 82 ae d3 3f f0 ca ad 72 ff 70 d0 3f
       0.3075261231181287 0.25689684104069865
0004d0 74 f0 cd dc 61 e7 d0 bf 7a c3 bd 25 d0 fa d6 bf
       -0.26412245333609197 -0.35905841527624427
0004e0 84 df e4 f4 a0 60 d2 bf 73 71 7b 8d a4 ee dc 3f
       -0.287147750048 0.4520655996000393
0004f0 96 bb f5 96 4c 1e d2 bf 6e 88 a7 c0 88 31 d2 bf
       -0.2830993150918685 -0.2842733270064234
000500 44 40 bb 00 07 7a c8 3f f0 b2 f1 d4 fc 9a df bf
       0.1912239793368845 -0.49383469386411516
000510 b5 e2 a5 8a 02 6c de 3f 17 9a 81 6a 35 87 b9 bf
       0.4753424028381617 -0.09971937036753108
000520 fe 5a c1 9a de ad d9 3f a6 55 59 17 f7 be d9 3f
       0.40123715508291 0.40228059082195455
000530 c5 93 67 32 cf 1d c6 3f ee ea 44 d5 9e 5b d1 bf
       0.17278470956003225 -0.27121706797667755
000540 e6 25 b0 98 cb 9c 83 3f 96 ca 70 0c bd df d3 bf
       0.009576407048387869 -0.31053091254140364
000550 ad a2 16 86 5a e6 cb bf 33 d9 a0 04 70 49 d2 bf
       -0.21796733424459572 -0.28573227359756287
000560 f6 4a ef 3d a5 cc b6 3f f4 a5 f3 b0 cb ac d4 bf
       0.08906014215544275 -0.32304661064571794
000570 a7 46 16 f9 a6 68 de bf e9 63 66 60 aa e0 c7 bf
       -0.4751374657144915 -0.18654374796895404
000580 2d 85 f4 03 6b e4 d6 3f 5a 5b b4 87 3e 3b db bf
       0.35769153009649096 -0.42549098255533624
000590 84 a7 63 3d 73 ca da bf 47 c5 4a f4 d6 ca c3 3f
       -0.4186065768723142 0.15462767532657493
0005a0 72 fb 6c c0 07 05 ce 3f b7 03 83 c6 30 98 d6 bf
       0.2345285119608565 -0.35303897272029466
0005b0 ee 5d 4b 49 1f 0e bc bf 04 a5 fa 83 ce c3 c8 3f
       -0.10959048785604583 0.19347554630557096
0005c0 0a 6f 7e bb c6 c2 d6 3f 1b b3 39 a1 3e 9e d3 3f
       0.35563820180844685 0.30653348679224884
0005d0 ca ab f4 31 c0 72 cd 3f 36 c5 70 40 9f 98 94 3f
       0.23006441535230088 0.02011345701993613
0005e0 89 86 16 bf 10 e7 ca bf 35 50 a7 4d ec ff d8 3f
       -0.21017655687778738 0.3906203039489385
0005f0 b4 9c 8f de fa 2a d3 3f 44 29 4b a9 34 aa de 3f
       0.2994982884833448 0.4791385319955632
000600 b4 29 b8 e9 85 67 d6 bf 80 35 cc a5 20 52 d4 3f
       -0.35006854843291113 0.317512666618164
000610 c8 5b f0 fc c3 16 9e bf 7f 2e 60 a5 c2 3f d7 bf
       -0.0293837187892583 -0.36326662206622723
000620 63 6a 09 8a f2 e8 ae bf 67 d0 10 c2 af 3c c6 3f
       -0.06037099776286394 0.17372700668204574
000630 21 0b e3 d5 c8 c2 c8 bf 23 a3 44 18 e0 de b9 bf
       -0.19344435161300402 -0.10105705826266535
000640 fe 28 84 71 86 77 d8 bf 53 54 03 b3 20 08 df bf
       -0.3822952374035963 -0.48487107736338436
000650 85 8e b5 11 6a 83 cd bf 52 b9 d4 4f 9b 32 d3 bf
       -0.230572947165559 -0.2999637870406292
000660 de 5a 68 e9 d2 f3 c6 3f 7f 79 00 b0 7f a9 cc 3f
       0.17931591412408115 0.2239226922401478
000670 ef 5c e3 33 db c1 a4 bf 74 e9 aa 0d 2f 5a e0 3f
       -0.0405415058937083 0.5110087649293704
000680 21 b9 3c 99 9c 40 c2 3f 2c aa 62 02 83 67 ae 3f
       0.14259679300580166 0.05938348201864971
000690 0b 8b 7b 16 f1 66 8a 3f 47 4b 35 65 67 44 dc bf
       0.012891658304800232 -0.44167504199611013
0006a0 fa 7a f1 ef 06 c0 cc 3f ca fd 3b 21 fd 9c 83 3f
       0.22461020198803522 0.009576776100856405
0006b0 da 47 1c 01 cb 70 d9 bf 48 a7 71 d8 cc 5e c5 bf
       -0.39750933750576467 -0.16695557182839083
0006c0 c9 65 36 a2 70 53 dc bf 90 a2 52 4d ad 1e dd 3f
       -0.4425927719217638 0.45499737311414723
0006d0 1b 7e 0b cd ea 03 df bf f3 03 4b 07 3a a2 ba bf
       -0.4846140863791974 -0.10403788259556261
0006e0 f7 08 e1 be d7 01 82 bf df 9f 64 aa fc d1 d3 bf
       -0.008792577278772458 -0.30969158782909106
0006f0 eb 0f d0 b0 8a 25 da 3f f6 4a ce 0c d4 af d7 3f
       0.40854136721486495 0.3701067090088793
000700 2d 4a 72 ae ac 67 d6 3f 9f fd b5 20 65 d4 dd 3f
       0.35007779155526714 0.46608856386589
000710 7d 30 4b 56 a2 95 de 3f d2 b0 d2 66 e0 06 cc bf
       0.47788294245834334 -0.21895985623030484
000720 3d 5c 23 58 d5 e4 d5 3f e9 87 8f 77 88 e2 8d 3f
       0.34209188086737524 0.014592233799650205
000730 85 17 94 88 0a cf cb 3f 10 79 72 7d e5 a6 c1 3f
       0.21725589436408313 0.13790577531194304
000740 cc db e8 67 8f fb cd bf 7d 81 07 8d 21 12 be 3f
       -0.23423950742446065 0.11746415799234984
000750 b1 0a ef 92 51 52 9e 3f 16 c6 8f fa 82 06 d4 3f
       0.02961089572250825 0.3128974387064728
000760 c4 de d4 25 f0 f3 c9 bf 5b d4 27 52 2b c3 9c bf
       -0.20275689933054342 -0.028088261498812588
000770 02 e8 27 2b 32 97 cb 3f 8c 3d af 3d cc fd c6 3f
       0.215551634857377 0.17962029468479235
000780 67 28 62 45 03 3e b3 3f 30 b7 ca 37 87 47 dc bf
       0.07516498989039776 -0.4418657345621453
000790 61 5e c6 86 e0 8d c8 3f 22 40 12 97 2f 40 b0 3f
       0.19182974415592738 0.06347939909233039
0007a0 b0 1a b3 0e 7a e4 c1 bf 2f d3 cb 04 b9 4f d3 bf
       -0.13978505819087195 -0.3017408892476849
0007b0 6a 9f f7 12 83 4d dd 3f 2a a6 be d6 9b 8e d9 3f
       0.4578559575297648 0.399329147063869
0007c0 65 ba 1b 8c 26 4a d2 3f f3 45 94 37 e6 7e c5 bf
       0.28577579195454056 -0.16793515886142493
0007d0 d7 80 03 7d 3b e2 d6 bf 4b 08 87 70 32 56 d5 bf
       -0.3575581284367337 -0.3333860491658284
0007e0 8f 34 98 d5 65 c9 d9 bf 5b 3e e4 6d 61 8d c3 bf
       -0.40291734560816733 -0.1527520929889644
0007f0 37 c5 60 25 ce 39 d8 bf 2d 5c b3 01 6d 40 9d bf
       -0.37852815294452874 -0.028566077450559547

hidden_bias f8 [1, 128]
000000 72 f8 05 d2 5c 73 f5 3f ff 1b 8c 0a a5 d2 f0 3f
       1.340664692309954 1.0514269268039695
000010 a4 a8 7f 4a 10 95 b1 bf 4c 21 61 32 cd 03 fa 3f
       -0.0686807805902015 1.6259281127878067
000020 6b 1b 1c e3 9e b4 04 c0 e1 1a 9b 40 f6 f5 09 c0
       -2.588193678183804 -3.2450985953649796
000030 af e0 6c 24 55 26 ed 3f 5c 5f c3 eb a2 ca bb bf
       0.910929270880862 -0.10856073623597012
000040 12 b8 c3 dd e3 3b f8 3f 3e 03 d4 e1 be 1f fc 3f
       1.5146216070820668 1.7577503987706247
000050 82 50 a4 9f a1 75 c4 3f 3e 04 63 2c 66 4d 10 c0
       0.15983982367527366 -4.075585073035709
000060 e5 57 bf 08 72 5c 08 c0 02 56 72 be c0 b0 f4 bf
       -3.0451393779176095 -1.293152564937714
000070 99 8f b2 8f 01 c7 db bf 75 a9 1c 5f 35 c0 05 40
       -0.43402136834105814 2.718851798116868
000080 fb 4d 2f 4a ef 65 f0 3f 04 b0 d2 c2 f0 b8 09 c0
       1.0248864076464759 -3.215302965216326
000090 d4 a4 17 65 1d 93 e1 3f 2f 24 73 8d 8d 64 9a 3f
       0.5492083525142797 0.02577420402375113
0000a0 2b dc 24 a1 98 19 f3 bf 32 11 c7 37 51 56 d7 3f
       -1.1937490744292159 0.364643387289351
0000b0 9d 0d ac 31 45 a5 c8 bf 98 03 cb 0f d1 58 04 40
       -0.19254364896197 2.543367503531453
0000c0 f8 d2 c6 d1 4f 4f a5 bf ef 68 85 79 3f e0 e5 3f
       -0.04162072597265437 0.6836240170917146
0000d0 3b f1 58 69 0c 75 c8 bf 5a 83 ec 3f 13 a2 fa 3f
       -0.1910720362083199 1.664569139197019
0000e0 1b 57 9a af 39 48 01 c0 dc d1 ff 6d 7b 61 13 40
       -2.1602662772155674 4.845197409380912
0000f0 29 b2 00 a5 f1 4a d3 3f 6c ed 04 46 cf 8b e6 bf
       0.3014492141108201 -0.7045666091502603
000100 24 89 a1 42 e7 3e 66 bf 89 30 b4 4f 07 b5 fb 3f
       -0.0027155415346423895 1.731696425765252
000110 a0 94 3d 54 4d 8e e2 bf 8d 17 59 6a 89 d4 e4 bf
       -0.5798708577464318 -0.6509444310292892
000120 d8 a2 b8 cf f9 4d c4 3f ac 36 2b b3 97 f5 d8 bf
       0.15862963335646074 -0.3899897813506452
000130 0a 08 bf b1 f8 28 12 c0 f7 f2 fe 54 2e 0d c7 bf
       -4.540011193546897 -0.18008975172224215
000140 23 af dd a2 8a 71 01 c0 98 8b 6d e2 d1 a7 d7 bf
       -2.180440208807242 -0.3696179114542075
000150 13 39 0d e8 b6 80 ce 3f e3 f0 dc ce 90 09 e1 3f
       0.2383030541481693 0.5324176826757391
000160 73 c0 ff f7 0b 91 e6 3f da 9d 79 8b 67 35 c0 3f
       0.705205902455431 0.126629775145587
000170 39 03 15 05 21 7a e8 3f 5f 6c 85 2e 2e b9 f6 bf
       0.7649083232173332 -1.4202100579484733
000180 77 7f 1e cc 5d 5f 13 c0 e9 5b d9 c7 3c ab 00 c0
       -4.843131245957799 -2.0836120236594877
000190 06 aa 71 a0 48 b8 f1 3f 1f 1c 83 96 cf 7d dc bf
       1.1074911372512601 -0.44517888735248506
0001a0 52 39 60 c1 d2 bf 79 3f d2 e1 ca 94 48 61 f7 3f
       0.006286452544385606 1.4612508594710687
0001b0 e3 2f 1a 60 0f a5 07 40 ed 2e 37 6e ae 1d f8 3f
       2.955595732497373 1.5072464280410103
0001c0 d9 3c 31 08 14 a6 e6 3f b0 74 37 86 21 98 07 40
       0.7077732238775766 2.9492826924966593
0001d0 87 6e 6d 73 68 65 de bf b0 40 77 3d cf 1e 9d 3f
       -0.474939453813683 0.028437841536118114
0001e0 7a fc 99 ee 9a d4 ff 3f 5d 66 94 15 6b b6 e3 3f
       1.9894055672046123 0.6160178586462269
0001f0 e8 25 06 1d 93 34 d1 3f 9d 22 ae 8a a0 b7 f6 bf
       0.26883390268684915 -1.419830838889687
000200 93 bb 7b eb 0c b5 0b c0 4a 9e 34 bd c9 91 fc bf
       -3.46340354892113 -1.7855927840081613
000210 14 e7 03 f9 cf a3 f1 bf 71 fc bc 8e 67 93 da bf
       -1.1024932601125714 -0.4152468580177305
000220 c4 75 57 64 c0 fd da bf b6 15 c0 75 d0 27 e1 3f
       -0.42173776434887267 0.5361101436434896
000230 84 e6 68 4b 11 b7 fe bf f5 51 0d 18 16 03 a4 bf
       -1.9196942277616538 -0.039086046634711304
000240 02 90 27 72 50 44 09 40 67 41 1e 47 b2 b5 ef 3f
       3.1583565634082342 0.9909297360446033
000250 9c 1e 95 e4 d2 ec 07 40 30 c2 19 b2 8d 3e e2 3f
       2.9906366212852173 0.5701359251525613
000260 64 01 38 38 80 62 f8 3f ba fc 8d 29 55 45 e4 bf
       1.524048060993743 -0.6334634601224913
000270 2c 0c 70 c9 d3 22 fe 3f b1 c2 fa d4 6e a4 cc bf
       1.883502756944618 -0.2237680950106742
000280 ac f8 e2 b2 bf 78 fd bf f8 7a 14 35 bb 4c fa bf
       -1.841979693198975 -1.643733222335582
000290 cc a4 94 39 f9 4d f8 3f 27 c0 6a d1 c2 6c 83 bf
       1.5190365075343832 -0.009484788909816256
0002a0 a7 a7 f6 82 95 6d c8 bf 1d 81 b5 4d 11 6d f7 bf
       -0.19084423918439805 -1.4641278300769678
0002b0 ad 3f b8 17 9d 7a 08 c0 0c 3e d1 0c ae 88 2b c0
       -3.059869942961049 -13.766952896635324
0002c0 22 fe 81 ef c5 e7 0a c0 9a 06 67 bc 42 07 e8 bf
       -3.3631705009027124 -0.7508863143668407
0002d0 e1 92 6f 9f 38 3c fa 3f ee 77 69 f7 52 1f b9 3f
       1.639702437206488 0.09813421764690108
0002e0 f0 4e 4a 9e 9d 5d da bf dc 89 ea 9d 31 59 ea bf
       -0.41196384866746794 -0.8233879169750327
0002f0 8e 16 6c 3b b2 5b c2 bf 32 3e 8c 3e 66 2b db bf
       -0.1434233465335421 -0.42452388866601887
000300 03 3e 67 c2 ce 23 18 c0 52 80 a5 75 69 5a 04 c0
       -6.034968411971479 -2.5441464606410955
000310 7d 21 77 57 38 b7 f8 3f 42 d1 bf 3f 30 90 03 40
       1.5447314659705562 2.445404527703574
000320 6a 5a eb 7f 23 17 f2 bf 79 f9 6b 79 28 66 23 c0
       -1.1306490895127816 -9.699527544432145
000330 8c af 1f 1f cb fe e0 bf b5 90 3b 06 32 4d ef 3f
       -0.5311027152906589 0.9781732675296754
000340 ff 33 ae 42 dc d8 16 40 3a dd 77 3d f3 03 13 c0
       5.711777727015032 -4.7538575748833924
000350 9e 1c 16 37 e4 c6 fc 3f 64 b8 cc d2 c3 be a9 bf
       1.7985574867068759 -0.05028354595411669
000360 f3 3c ae 85 a1 ea f8 3f 3f fe dd 7f 58 56 ea 3f
       1.557282945814049 0.8230402467160686
000370 8c f0 6c a6 51 c9 09 c0 ff 51 52 ad 26 ee f7 bf
       -3.2233002664561976 -1.495642354047163
000380 50 74 01 e7 ee 84 12 c0 dd c0 d8 8a 43 c9 b0 3f
       -4.629817590202109 0.06557104244052732
000390 ca f5 4a fb ae fc 09 c0 5e 62 88 9f 4a 08 f4 3f
       -3.2483806259394656 1.2520242912052235
0003a0 81 ce cc 6f 72 5f f9 bf 48 4b 0e f3 55 f8 dc 3f
       -1.5858024947346225 0.4526572106926108
0003b0 76 73 61 06 43 86 12 c0 e6 8d 22 dc 3b c1 e1 3f
       -4.63111505479616 0.5548381137381824
0003c0 6a dd 36 fa 58 d0 eb bf 62 f1 d3 d8 53 af cb bf
       -0.8691830527304039 -0.21628807151126767
0003d0 fc 81 9a 40 72 3d 1a c0 89 af cd fa 74 09 03 40
       -6.5600061506561325 2.3796176523227968
0003e0 f7 32 c4 ec d3 f5 d3 bf 27 92 bc 03 0d 1e d1 bf
       -0.31187914010733614 -0.267459157609013
0003f0 c4 8c 0c 02 98 14 d1 bf 53 36 cc e0 6c ef 2a c0
       -0.26688194465732473 -13.46762754910302

output_weights f8 [128, 10]
000000 0b 12 66 8e 17 7e db bf 86 41 c6 83 e7 10 c0 bf
       -0.4295710459339552 -0.12551587995814034
000010 d5 8e c8 2b 2e 9d f0 3f 22 9e a9 c8 fd a1 d0 bf
       1.0383741102495396 -0.25988716693834324
000020 6c ed 2a 38 79 9f ff 3f 69 03 ff 05 98 45 ff 3f
       1.9764339632082182 1.9544906839584775
000030 f8 6c da 6e 22 da 09 c0 10 93 09 c5 c8 54 11 c0
       -3.2315109882744046 -4.332797125539187
000040 48 62 26 1d c0 53 bd 3f 74 b9 e3 9e d8 3a e9 bf
       0.114559180370983 -0.7884333709060187
000050 84 64 7a f4 fa e2 0e 40 72 18 52 20 ce 4d e5 3f
       3.8608302211619634 0.6657477027190579
000060 55 c6 3d fc 3a dd fe bf d2 67 ef 22 cf 9b e0 bf
       -1.9290113309074475 -0.5190196688010877
000070 2e 50 c5 63 b3 62 df bf 27 a0 30 3a 4c 2f f2 3f
       -0.4903992151569153 1.1365473053974797
000080 03 13 3d 24 82 f7 01 c0 e0 d4 84 32 b0 98 ed bf
       -2.245853694070662 -0.9248887049385779
000090 e2 57 d3 af 1e 79 fd bf 19 d9 89 07 62 5b f0 bf
       -1.842070280855744 -1.0223102850409929
0000a0 f9 7a 94 fc be 05 d0 3f 55 f6 13 c6 6a ea b8 3f
       0.2503507105447365 0.09732692085159418
0000b0 95 9e bf 79 97 e5 da bf 01 de 19 89 28 b1 de bf
       -0.4202631653738334 -0.4795628870847111
0000c0 80 b0 a6 e8 82 ec d4 bf 7f 02 d8 19 8e 28 f3 bf
       -0.3269355079635332 -1.1974011430285427
0000d0 95 07 08 4f c3 c9 be bf 36 c1 65 0f c3 be fe 3f
       -0.12026615790821744 1.92157274260178
0000e0 28 c0 36 e8 ec 3d e5 bf f5 73 e6 cd f3 6a d9 3f
       -0.6638092551638737 0.39715285403673245
0000f0 da ca fd 98 52 78 ff bf 16 42 97 77 09 1e be 3f
       -1.966875646231236 0.11764582795809306
000100 27 85 6c 79 59 eb f5 3f f7 f8 6e 80 bc 77 d9 bf
       1.369958376228462 -0.3979331258996263
000110 fe c1 1a bc 5f eb f2 bf d4 7f 0a 2f 4a 34 f4 bf
       -1.1824643466790117 -1.2627660596408434
000120 90 33 16 46 4b 6d f5 bf 9a 3f 43 c8 37 1d e2 bf
       -1.3391831147921245 -0.5660666381245278
000130 bf 85 e1 45 79 af c4 bf 8d 5f 03 29 43 2e 91 3f
       -0.1616050330367624 0.016778039339299822
000140 90 f8 3b d6 04 4a f8 3f ee 75 8e 5d 0c bd fe bf
       1.5180710190320816 -1.9211543707418701
000150 9e 63 09 96 15 2f f2 bf e9 90 22 e3 d2 e4 f0 bf
       -1.1364951954658191 -1.0558651802503454
000160 73 46 01 bd 90 48 ff bf cc 0f 61 c3 d9 e9 b2 bf
       -1.9552161581999854 -0.07388077754973138
000170 48 bf 74 8a c3 72 f0 bf 05 38 2c bd 38 6f ef bf
       -1.0280185135306557 -0.9823268599300269
000180 01 7c 6e 3d 07 e3 f7 bf c6 fd 3e 73 2b 54 fb bf
       -1.4929268264456825 -1.7080492498206339
000190 58 a1 9c 2f 5c 5d 07 c0 7f 79 e8 d9 45 cf d1 3f
       -2.920585987060047 0.27827593116844435
0001a0 ba c9 c0 ff 72 a8 03 c0 cd 3b 18 ac 13 2f f2 bf
       -2.457250593253062 -1.1364933702895883
0001b0 da 93 4d 2d d9 19 fb 3f a8 cb 14 d7 66 39 aa 3f
       1.6938106317186254 0.0512191903639157
0001c0 ba a9 00 04 35 03 f3 bf cb 15 be dc 5a 57 e5 bf
       -1.1882829815245786 -0.6669134436967225
0001d0 a1 28 21 52 50 42 f2 bf 6b e8 13 3e 4d cf bd 3f
       -1.1411898811516397 0.11644442334719123
0001e0 be de c3 50 2a 48 fb 3f 73 cb 86 70 80 39 db 3f
       1.7051184801947978 0.4253846262828837
0001f0 6b 8e 4f 87 5c 83 06 c0 e6 e4 66 21 f5 46 7d 3f
       -2.814141327967993 0.007147748509333618
000200 a1 fa 95 38 40 d8 f4 bf 29 73 b4 03 7b 80 ba 3f
       -1.3027956209549887 0.10352295723391748
000210 87 22 d8 0f cc eb f7 bf 06 db 0a 72 bf 80 ee 3f
       -1.4950676554600777 0.9532162883177484
000220 5a 35 6c 7e b2 b9 cd 3f df b4 fa 9c d2 12 ed bf
       0.23222953007681718 -0.908547693824996
000230 5f 6c 60 e7 e7 e5 03 40 41 ef 02 9e af 7e a5 bf
       2.4872587276745857 -0.04198216251231069
000240 ea 4f 85 db 68 80 fd bf 09 98 28 c1 6a bd db bf
       -1.843849999907429 -0.43343609679357137
000250 3a 43 5d 41 f6 63 f3 bf 12 7f 9e 1e 0d cb d2 bf
       -1.2119047692578548 -0.293643264676562
000260 a9 68 91 4b fd a0 01 c0 fa 28 71 0c 8a 23 d2 bf
       -2.2036081222296002 -0.28341914382021083
000270 c5 5b e5 f1 55 ee dc bf 98 0e a9 31 1b 63 e0 bf
       -0.4520468580498654 -0.5120979280404354
000280 58 e6 00 22 24 b0 00 c0 f3 d3 de a4 b9 0b e4 bf
       -2.0860064178967086 -0.6264312954068586
000290 11 00 c3 ae 32 e8 f6 bf 30 8e df ff a0 52 da bf
       -1.4316889597539595 -0.41129326808570266
0002a0 a1 eb 1e 77 01 18 02 c0 f4 c5 15 b9 3c fb f2 bf
       -2.2617215448676267 -1.1863372068295321
0002b0 1e ef 6a 8a c6 a8 e5 bf 05 a9 c8 f3 9d d3 00 40
       -0.6768524840804024 2.103328613816418
0002c0 0b 89 f1 a7 e1 27 d7 bf ea d3 1e 02 ec 51 ff bf
       -0.3618091716836182 -1.9575004656628558
0002d0 54 d7 56 0c a5 60 f0 bf 8d 8c 3b 1a ff 6d e9 bf
       -1.0235949022293953 -0.7946773063998919
0002e0 6b 0d 79 1b 5c 7b 03 c0 87 0c 78 5b 00 bf f5 bf
       -2.435234274512984 -1.359131200123359
0002f0 7d 93 77 f7 1e 55 fc bf 5a 5a 69 1d 93 95 05 40
       -1.7707814852412576 2.6980345056320347
000300 2c c2 99 9f 00 8f f9 bf e4 48 6f 2c ea 7b f9 bf
       -1.5974127039336379 -1.5927526221972181
000310 27 2a 9b 0d e8 d3 c9 bf 2b 2e 3d 46 15 97 f7 bf
       -0.20177937187539038 -1.4743855231962566
000320 cb 1c 81 fb f2 d5 d0 bf 72 f3 bb fb ea 3d d1 3f
       -0.26305841980906725 0.2694041689244876
000330 c8 61 23 4a 4f 12 d4 bf cb 5d fe 94 e0 42 d1 bf
       -0.31361753692683836 -0.2697068648353393
000340 aa 33 b6 03 b4 37 d6 3f 49 74 ff cc 02 23 bb 3f
       0.34714985239480234 0.10600297455626263
000350 8d 83 10 97 7b f1 b0 bf 09 b0 f4 78 71 ec d9 3f
       -0.06618473470781634 0.40505635082331587
000360 e2 54 db 0f 86 ed c8 bf 35 9c 12 fb 8c 82 cf bf
       -0.19474864744430592 -0.24617159137162195
000370 27 0d 6d 6e 73 4c e4 bf 62 21 7a 47 af ea f2 bf
       -0.634332385707613 -1.1822960655282135
000380 1d 0f a4 e7 47 02 e9 3f e1 84 72 85 b8 5d e7 bf
       0.7815284275279485 -0.73019052566465
000390 25 55 2c 2a a6 cd f2 bf a1 f7 c5 96 6a 29 d8 bf
       -1.1752072951688401 -0.3775278541942218
0003a0 a6 4f 0d 1c d1 c6 e8 bf 90 82 7d 4a 3c 56 e2 bf
       -0.7742696330919798 -0.5730267958534387
0003b0 fc dd 05 dc 28 fe e1 bf bc eb 49 05 aa cc f6 bf
       -0.5622753426859499 -1.4249668318359303
0003c0 9f 2a 08 b2 63 82 f1 3f 4b 38 92 52 5b e5 dc 3f
       1.0943333582278354 0.45149882377234424
0003d0 2c 18 06 d9 01 e6 e1 bf d6 88 e0 7d 8c 79 ac bf
       -0.5593270529504983 -0.05561484371743723
0003e0 f3 c2 53 98 b9 db 03 c0 e2 1f 40 59 0f 54 d2 bf
       -2.482287588173102 -0.2863806125246794
0003f0 3a b0 38 dd b9 54 f0 bf 85 27 3e 7a f3 12 fc bf
       -1.0206850663626157 -1.7546267294987683
000400 b5 eb 11 5e eb 6d f4 bf 4b 2e 3b e8 32 7c b2 bf
       -1.2768357920274245 -0.07220762414652275
000410 4a 08 4d 21 e4 4d fc 3f 2e 65 ad 70 f7 cc c9 3f
       1.7690163899246891 0.2015675831014873
000420 9f f8 79 a6 02 e3 f8 bf ca 93 aa 02 6e ad ec bf
       -1.5554224493967366 -0.8961706211163059
000430 9d 99 e7 3b be f4 0a c0 58 3b c9 1e 2a ee c9 3f
       -3.3695034675649382 0.20258070471978828
000440 4e a5 70 1d 20 0a f6 bf 12 ae 73 4a b3 56 f5 bf
       -1.3774720335007546 -1.3336670788074838
000450 a5 3f 62 f1 31 46 ee bf 10 b7 22 2f a3 a4 c1 bf
       -0.9460687365080857 -0.13783683587592366
000460 50 86 eb c7 2b c1 e0 bf bf 2c f7 b2 cc b3 d0 bf
       -0.5235804466903549 -0.26097409703352165
000470 e2 ee d5 9d 8a 95 ea bf 9f 93 1a 28 11 51 dc bf
       -0.8307545740821889 -0.442447938121683
000480 fa 29 c8 31 15 56 f8 bf 72 09 0d 46 e4 21 af 3f
       -1.5210163063626383 0.060805448104036666
000490 3f 45 69 d4 ca 63 e5 3f 2e 89 75 72 67 25 d5 bf
       0.6684316776901723 -0.33040796449326393
0004a0 d9 21 86 cd 7b b8 e8 bf 00 1b 51 14 49 81 d2 3f
       -0.7725199712886549 0.2891409586340359
0004b0 2b a0 1d 95 8d 16 0d c0 c0 b1 86 47 fb 2a e3 3f
       -3.6360122346559556 0.5989967724795449
0004c0 8a 7e 02 53 c4 9e c2 bf 52 d5 e1 56 6f b8 b7 bf
       -0.1454701810189259 -0.0926580035318996
0004d0 ea 3c 40 cf 37 4c fb bf 6d 2d 62 12 cc dd c4 bf
       -1.7061079116572793 -0.16301871202118026
0004e0 ba 24 59 5c bd c3 0e 40 36 75 55 8e 5c 5b d9 bf
       3.8455760206894327 -0.3962012662867268
0004f0 ed 02 95 6e 5e 4f d1 bf 19 e8 2b cd 96 4b e7 bf
       -0.2704692916777692 -0.7279771811729489
000500 d6 6d ae d9 92 fb d7 bf 13 08 b6 05 11 89 c8 bf
       -0.3747298360628667 -0.19168293742046724
000510 b5 e2 45 97 b1 1c e0 bf 40 e3 4b fc e0 c5 06 40
       -0.503502650694904 2.846620532098683
000520 1b 73 0c 33 45 d8 05 c0 3d 6f 8e 7f 5d fa d7 bf
       -2.7306007373976064 -0.3746560807864972
000530 51 0d 20 3c 1f 32 f9 bf 4f cd 35 9a ab 5d dd 3f
       -1.5747368191376447 0.45884218272768335
000540 36 7e ef 20 2e dd d0 3f 8a 4c 60 13 1b 78 f0 bf
       0.26349976745948156 -1.0293226963883932
000550 60 ef d2 d1 f1 c9 f5 3f 83 ff 96 81 3e 4d f2 bf
       1.3618028827904354 -1.1438584386923771
000560 e8 de f6 34 d0 57 fd bf 69 84 63 bb 1c 0f e2 bf
       -1.83393879594035 -0.5643447551666557
000570 70 b7 45 d2 20 1f f6 bf 15 7d f6 bb 5a 75 fa bf
       -1.382599660278597 -1.6536509840296436
000580 84 9b 67 36 9b 48 f1 bf af 18 68 45 e8 e1 e2 bf
       -1.0802261471924064 -0.5900765758131196
000590 69 43 5d 69 82 a7 b8 bf 41 51 26 34 9a 06 e5 bf
       -0.09630599090929838 -0.6570559519337068
0005a0 5b f6 f8 db cc 9f df bf 6e 15 56 38 3c 67 d6 bf
       -0.4941284320992502 -0.350050978675731
0005b0 6f 16 4e 9f 78 92 e6 bf b9 9b da fc 43 7b cd bf
       -0.7053797828127254 -0.23032426687606547
0005c0 76 0d 15 9c 75 ea f2 bf 8c 49 f9 a8 11 5e ff bf
       -1.1822410675966615 -1.9604660606897566
0005d0 34 bc d8 9c 71 15 eb bf 85 66 e5 4e eb a0 fe 3f
       -0.8463676513109761 1.914286907375215
0005e0 a0 3b d2 3c c7 d2 e5 bf 48 66 b1 d2 92 f7 e7 bf
       -0.6819797695078371 -0.7489713778588305
0005f0 0d f4 39 71 b2 90 e7 bf 29 6e 57 83 c5 70 d9 bf
       -0.7364132129147279 -0.3975080282814099
000600 dd 0c e3 27 2d 0f fc bf 06 9f 3e a7 ca 76 e9 bf
       -1.7537051733095759 -0.795750929498326
000610 85 e6 30 70 78 3a f6 bf d5 22 57 62 37 77 01 40
       -1.3892750151120776 2.1832111056176964
000620 47 7e 38 d4 43 f6 f5 3f ae b2 80 95 d3 22 0f c0
       1.3726232805128278 -3.892005126943636
000630 95 3e 4d 83 02 00 e2 3f e1 3b 26 55 4b 78 b5 3f
       0.5625011982428584 0.0838667948612364
000640 46 0e df 1f 11 42 f5 bf 29 03 96 62 b7 8f f8 bf
       -1.3286296124432666 -1.5350869990363185
000650 fc 77 eb 12 37 5a ef bf de 67 53 9c 03 74 ca bf
       -0.9797625894095741 -0.2066654694852436
000660 41 9d 91 c2 a0 9e ed bf e9 a3 b1 4f 28 f0 f1 bf
       -0.9256137657329547 -1.121132193855596
000670 f3 a6 fd 95 d2 4c f0 3f ab 19 1f 7b e5 55 e4 bf
       1.0187555178658243 -0.6354854016033661
000680 2f fa 6b cf 9e 1f de bf 7c 41 4a 31 08 c2 a2 bf
       -0.47067995315584005 -0.03663659669576
000690 13 45 b0 59 59 6e fa 3f d4 32 de 2a f9 4f c4 3f
       1.6519406798800602 0.15869059174692401
0006a0 0f 68 41 f5 c6 09 b4 bf 56 7b d9 c3 50 10 f7 bf
       -0.07827418792422257 -1.4414832735416971
0006b0 29 03 ae bf 0e 41 db bf 74 e9 52 f5 eb eb f3 3f
       -0.4258458015320224 1.245098074242006
0006c0 01 a7 7b 4a f4 9d ff bf 81 34 fa 1f 07 50 ee 3f
       -1.9760630521290639 0.9472690224225887
0006d0 ec e4 fd b5 d9 19 e1 3f 78 44 50 4e 65 1f 05 c0
       0.5344055704619257 -2.640329944443291
0006e0 15 21 f5 23 1d be f5 bf c2 f0 cf ab 3e 8f f0 bf
       -1.358914509257436 -1.0349718772331902
0006f0 a6 1f f3 97 cb e6 f9 bf 9e 30 51 4c f8 96 e7 bf
       -1.61884650569298 -0.7371789446420001
000700 11 3d d0 1e d1 af f9 bf b0 93 17 b9 bf 89 f9 bf
       -1.6054240420961075 -1.596130106941228
000710 00 16 7a d1 98 26 f4 3f a3 a4 31 c9 79 ab f3 bf
       1.2594230826083503 -1.2293641909730375
000720 09 4b 95 88 ed db 01 c0 ca 55 5a d0 b2 c5 e2 bf
       -2.232386652999939 -0.5866331166641257
000730 d7 f7 a1 9a 83 cf d9 3f 29 b1 7c a3 aa c1 d7 bf
       0.4032906541905254 -0.3711954685739039
000740 95 e5 c9 ad eb d7 ca bf a2 98 a2 fc ae cc ff bf
       -0.2097143744065703 -1.9874715679702963
000750 38 23 d1 32 28 45 0c 40 6a 45 24 a7 2e 96 c7 bf
       3.533768078811047 -0.18427069817748115
000760 7e cc 79 bf e0 79 fc bf e6 ec 54 03 6f 75 f4 3f
       -1.7797553519747278 1.278670323385819
000770 3b 9d a7 15 aa e7 df bf eb dd b3 d2 cd bf ee bf
       -0.4985146724197482 -0.9609135737691167
000780 9c 31 a7 7e 53 af 04 c0 f9 71 f4 e9 86 4c da bf
       -2.5856084723256583 -0.410920837852046
000790 da c8 03 eb 72 10 fd bf ab 59 e4 db 8f 14 fe 3f
       -1.8165158443703633 1.8800200070887552
0007a0 56 0c 36 db 4c 8c 03 c0 d9 f4 c3 09 91 fe ed bf
       -2.4435059667462538 -0.9373250189525165
0007b0 73 dc 8a 76 23 a6 fd bf c8 8a 63 ca e7 3d f8 bf
       -1.8530611639560248 -1.5151136308492585
0007c0 41 3c 2f e2 0a 46 d3 bf e1 e8 47 97 25 8b f0 bf
       -0.30115005577403414 -1.0339713963899657
0007d0 06 dc 19 99 d5 90 e4 bf 7b a7 20 31 e9 7d e2 bf
       -0.6426799764875575 -0.5778699836275644
0007e0 2e 8a 29 6c 99 d4 f9 bf 3d f5 56 24 b2 2f e2 bf
       -1.6144041276062455 -0.568322249389588
0007f0 7d ac 0f 70 9a 5a f2 3f 0a f9 66 a3 0a 27 02 40
       1.1471199395553235 2.2690632596778686

output_bias f8 [1, 10]
000000 93 e6 f0 c4 10 ab 04 c0 32 30 2e ce 74 b4 22 c0
       -2.5835280786530546 -9.352453654421058
000010 2a bd ba a7 6c e5 ea bf 0b 0c 36 31 c8 97 06 c0
       -0.8405059123960303 -2.8241123051279877
000020 d7 9e 1c 6a 3a c5 f2 bf a5 f1 81 16 41 cd 27 c0
       -1.1731514115326058 -11.900887206423088
000030 07 74 25 a3 7f b9 db bf 77 c4 82 91 a7 2b 1d c0
       -0.4331969350076296 -7.292631410223399
000040 f9 61 a0 64 92 d7 12 c0 75 95 46 ba 88 06 1e c0
       -4.710519382752403 -7.506380949552626
